2024-09-09,15:58:24 | INFO | Running with a single process. Device cuda:0.
2024-09-09,15:58:24 | INFO | Loaded ViT-B-32 model config.
2024-09-09,15:58:26 | INFO | downloading https://huggingface.co/laion/CLIP-ViT-B-32-DataComp.XL-s13B-b90K/resolve/main/open_clip_pytorch_model.bin to /home/mila/s/sonia.joseph/.cache/huggingface/hub/tmpkw6gsd82
2024-09-09,15:58:40 | INFO | Loading pretrained ViT-B-32 weights (datacomp_xl_s13b_b90k).
2024-09-09,15:58:41 | INFO | Model:
2024-09-09,15:58:41 | INFO | CLIP(
  (visual): VisionTransformer(
    (conv1): Conv2d(3, 768, kernel_size=(32, 32), stride=(32, 32), bias=False)
    (patch_dropout): Identity()
    (ln_pre): LayerNorm((768,), eps=1e-05, elementwise_affine=True)
    (transformer): Transformer(
      (resblocks): ModuleList(
        (0-11): 12 x ResidualAttentionBlock(
          (ln_1): LayerNorm((768,), eps=1e-05, elementwise_affine=True)
          (attn): MultiheadAttention(
            (out_proj): NonDynamicallyQuantizableLinear(in_features=768, out_features=768, bias=True)
          )
          (ls_1): Identity()
          (ln_2): LayerNorm((768,), eps=1e-05, elementwise_affine=True)
          (mlp): Sequential(
            (c_fc): Linear(in_features=768, out_features=3072, bias=True)
            (gelu): GELU(approximate='none')
            (c_proj): Linear(in_features=3072, out_features=768, bias=True)
          )
          (ls_2): Identity()
        )
      )
    )
    (ln_post): LayerNorm((768,), eps=1e-05, elementwise_affine=True)
  )
  (transformer): Transformer(
    (resblocks): ModuleList(
      (0-11): 12 x ResidualAttentionBlock(
        (ln_1): LayerNorm((512,), eps=1e-05, elementwise_affine=True)
        (attn): MultiheadAttention(
          (out_proj): NonDynamicallyQuantizableLinear(in_features=512, out_features=512, bias=True)
        )
        (ls_1): Identity()
        (ln_2): LayerNorm((512,), eps=1e-05, elementwise_affine=True)
        (mlp): Sequential(
          (c_fc): Linear(in_features=512, out_features=2048, bias=True)
          (gelu): GELU(approximate='none')
          (c_proj): Linear(in_features=2048, out_features=512, bias=True)
        )
        (ls_2): Identity()
      )
    )
  )
  (token_embedding): Embedding(49408, 512)
  (ln_final): LayerNorm((512,), eps=1e-05, elementwise_affine=True)
)
2024-09-09,15:58:41 | INFO | Params:
2024-09-09,15:58:41 | INFO |   accum_freq: 1
2024-09-09,15:58:41 | INFO |   aug_cfg: {}
2024-09-09,15:58:41 | INFO |   batch_size: 64
2024-09-09,15:58:41 | INFO |   beta1: 0.9
2024-09-09,15:58:41 | INFO |   beta2: 0.98
2024-09-09,15:58:41 | INFO |   checkpoint_path: ./logs/2024_09_09-15_58_24-model_ViT-B-32-lr_0.0005-b_64-j_4-p_amp/checkpoints
…
