2024-09-09,16:10:50 | INFO | Running with a single process. Device cuda:0.
2024-09-09,16:10:50 | INFO | Loaded ViT-B-32-256 model config.
2024-09-09,16:10:51 | INFO | downloading https://huggingface.co/laion/CLIP-ViT-B-32-256x256-DataComp-s34B-b86K/resolve/main/open_clip_pytorch_model.bin to /network/scratch/s/sonia.joseph/hub/tmp2c90fjfz
2024-09-09,16:11:07 | INFO | Loading pretrained ViT-B-32-256 weights (datacomp_s34b_b86k).
2024-09-09,16:11:08 | INFO | Model:
2024-09-09,16:11:08 | INFO | CLIP(
  (visual): VisionTransformer(
    (conv1): Conv2d(3, 768, kernel_size=(32, 32), stride=(32, 32), bias=False)
    (patch_dropout): Identity()
    (ln_pre): LayerNorm((768,), eps=1e-05, elementwise_affine=True)
    (transformer): Transformer(
      (resblocks): ModuleList(
        (0-11): 12 x ResidualAttentionBlock(
          (ln_1): LayerNorm((768,), eps=1e-05, elementwise_affine=True)
          (attn): MultiheadAttention(
            (out_proj): NonDynamicallyQuantizableLinear(in_features=768, out_features=768, bias=True)
          )
          (ls_1): Identity()
          (ln_2): LayerNorm((768,), eps=1e-05, elementwise_affine=True)
          (mlp): Sequential(
            (c_fc): Linear(in_features=768, out_features=3072, bias=True)
            (gelu): GELU(approximate='none')
            (c_proj): Linear(in_features=3072, out_features=768, bias=True)
          )
          (ls_2): Identity()
        )
      )
    )
    (ln_post): LayerNorm((768,), eps=1e-05, elementwise_affine=True)
  )
  (transformer): Transformer(
    (resblocks): ModuleList(
      (0-11): 12 x ResidualAttentionBlock(
        (ln_1): LayerNorm((512,), eps=1e-05, elementwise_affine=True)
        (attn): MultiheadAttention(
          (out_proj): NonDynamicallyQuantizableLinear(in_features=512, out_features=512, bias=True)
        )
        (ls_1): Identity()
        (ln_2): LayerNorm((512,), eps=1e-05, elementwise_affine=True)
        (mlp): Sequential(
          (c_fc): Linear(in_features=512, out_features=2048, bias=True)
          (gelu): GELU(approximate='none')
          (c_proj): Linear(in_features=2048, out_features=512, bias=True)
        )
        (ls_2): Identity()
      )
    )
  )
  (token_embedding): Embedding(49408, 512)
  (ln_final): LayerNorm((512,), eps=1e-05, elementwise_affine=True)
)
2024-09-09,16:11:08 | INFO | Params:
2024-09-09,16:11:08 | INFO |   accum_freq: 1
2024-09-09,16:11:08 | INFO |   aug_cfg: {}
2024-09-09,16:11:08 | INFO |   batch_size: 64
2024-09-09,16:11:08 | INFO |   beta1: 0.9
2024-09-09,16:11:08 | INFO |   beta2: 0.98
2024-09-09,16:11:08 | INFO |   checkpoint_path: ./logs/2024_09_09-16_10_50-model_ViT-B-32-256-lr_0.0005-b_64-j_4-p_amp/checkpoints
…
